…
2026-01-21 17:25:33,175 - INFO - logging - TorchTrainDataset.__init__ took 0.0021 seconds
2026-01-21 17:25:33,175 - INFO - train - Instantiating torch loaders
2026-01-21 17:29:15,235 - INFO - logging - Number of parameters: 82132354
2026-01-21 17:29:16,155 - INFO - logging - =========================================================================================================
Layer (type:depth-idx)                                  Output Shape              Param #
=========================================================================================================
DistributedDataParallel                                 [4, 2, 200, 200]          --
├─Samudra: 1-1                                          [4, 2, 200, 200]          --
│    └─UNetBackbone: 2-1                                [4, 280, 200, 200]        82,127,312
│    └─Conv2d: 2-2                                      [4, 2, 200, 200]          5,042
│    └─Correctors: 2-3                                  [4, 2, 200, 200]          --
│    └─UNetBackbone: 2-4                                [4, 280, 200, 200]        (recursive)
│    └─Conv2d: 2-5                                      [4, 2, 200, 200]          (recursive)
│    └─Correctors: 2-6                                  [4, 2, 200, 200]          --
│    └─UNetBackbone: 2-7                                [4, 280, 200, 200]        (recursive)
│    └─Conv2d: 2-8                                      [4, 2, 200, 200]          (recursive)
│    └─Correctors: 2-9                                  [4, 2, 200, 200]          --
│    └─UNetBackbone: 2-10                               [4, 280, 200, 200]        (recursive)
│    └─Conv2d: 2-11                                     [4, 2, 200, 200]          (recursive)
│    └─Correctors: 2-12                                 [4, 2, 200, 200]          --
=========================================================================================================
Total params: 82,132,354
Trainable params: 82,132,354
Non-trainable params: 0
Total mult-adds (Units.TERABYTES): 6.02
=========================================================================================================
Input size (MB): 0.00
Forward/backward pass size (MB): 28029.94
Params size (MB): 328.53
…
