…
2026-01-21 16:54:43,523 - INFO - logging - TorchTrainDataset.__init__ took 0.0014 seconds
2026-01-21 16:54:43,524 - INFO - train - Instantiating torch loaders
2026-01-21 16:56:29,051 - INFO - logging - Number of parameters: 82140180
2026-01-21 16:56:29,655 - INFO - logging - =========================================================================================================
Layer (type:depth-idx)                                  Output Shape              Param #
=========================================================================================================
DistributedDataParallel                                 [4, 4, 100, 100]          --
├─Samudra: 1-1                                          [4, 4, 100, 100]          --
│    └─UNetBackbone: 2-1                                [4, 280, 100, 100]        82,130,096
│    └─Conv2d: 2-2                                      [4, 4, 100, 100]          10,084
│    └─Correctors: 2-3                                  [4, 4, 100, 100]          --
│    └─UNetBackbone: 2-4                                [4, 280, 100, 100]        (recursive)
│    └─Conv2d: 2-5                                      [4, 4, 100, 100]          (recursive)
│    └─Correctors: 2-6                                  [4, 4, 100, 100]          --
│    └─UNetBackbone: 2-7                                [4, 280, 100, 100]        (recursive)
│    └─Conv2d: 2-8                                      [4, 4, 100, 100]          (recursive)
│    └─Correctors: 2-9                                  [4, 4, 100, 100]          --
│    └─UNetBackbone: 2-10                               [4, 280, 100, 100]        (recursive)
│    └─Conv2d: 2-11                                     [4, 4, 100, 100]          (recursive)
│    └─Correctors: 2-12                                 [4, 4, 100, 100]          --
=========================================================================================================
Total params: 82,140,180
Trainable params: 82,140,180
Non-trainable params: 0
Total mult-adds (Units.TERABYTES): 1.50
=========================================================================================================
Input size (MB): 0.00
Forward/backward pass size (MB): 7014.85
Params size (MB): 328.56
…
