…
2026-01-28 14:37:49,774 - INFO - logging - TorchTrainDataset.__init__ took 0.0017 seconds
2026-01-28 14:37:49,774 - INFO - train - Instantiating torch loaders
2026-01-28 14:38:17,561 - INFO - logging - Number of parameters: 82132354
2026-01-28 14:38:24,039 - INFO - logging - =========================================================================================================
Layer (type:depth-idx)                                  Output Shape              Param #
=========================================================================================================
DistributedDataParallel                                 [2, 2, 1000, 1000]        --
├─Samudra: 1-1                                          [2, 2, 1000, 1000]        --
│    └─UNetBackbone: 2-1                                [2, 280, 1000, 1000]      82,127,312
│    └─Conv2d: 2-2                                      [2, 2, 1000, 1000]        5,042
│    └─Correctors: 2-3                                  [2, 2, 1000, 1000]        --
│    └─UNetBackbone: 2-4                                [2, 280, 1000, 1000]      (recursive)
│    └─Conv2d: 2-5                                      [2, 2, 1000, 1000]        (recursive)
│    └─Correctors: 2-6                                  [2, 2, 1000, 1000]        --
│    └─UNetBackbone: 2-7                                [2, 280, 1000, 1000]      (recursive)
│    └─Conv2d: 2-8                                      [2, 2, 1000, 1000]        (recursive)
│    └─Correctors: 2-9                                  [2, 2, 1000, 1000]        --
│    └─UNetBackbone: 2-10                               [2, 280, 1000, 1000]      (recursive)
│    └─Conv2d: 2-11                                     [2, 2, 1000, 1000]        (recursive)
│    └─Correctors: 2-12                                 [2, 2, 1000, 1000]        --
=========================================================================================================
Total params: 82,132,354
Trainable params: 82,132,354
Non-trainable params: 0
Total mult-adds (Units.TERABYTES): 75.26
=========================================================================================================
Input size (MB): 0.00
Forward/backward pass size (MB): 350447.35
Params size (MB): 328.53
…
