…
2026-01-28 15:16:17,962 - INFO - logging - TorchTrainDataset.__init__ took 0.0017 seconds
2026-01-28 15:16:17,963 - INFO - train - Instantiating torch loaders
2026-01-28 15:17:08,116 - INFO - logging - Number of parameters: 82175804
2026-01-28 15:17:11,236 - INFO - logging - =========================================================================================================
Layer (type:depth-idx)                                  Output Shape              Param #
=========================================================================================================
DistributedDataParallel                                 [2, 12, 500, 500]         --
├─Samudra: 1-1                                          [2, 12, 500, 500]         --
│    └─UNetBackbone: 2-1                                [2, 280, 500, 500]        82,145,552
│    └─Conv2d: 2-2                                      [2, 12, 500, 500]         30,252
│    └─Correctors: 2-3                                  [2, 12, 500, 500]         --
│    └─UNetBackbone: 2-4                                [2, 280, 500, 500]        (recursive)
│    └─Conv2d: 2-5                                      [2, 12, 500, 500]         (recursive)
│    └─Correctors: 2-6                                  [2, 12, 500, 500]         --
│    └─UNetBackbone: 2-7                                [2, 280, 500, 500]        (recursive)
│    └─Conv2d: 2-8                                      [2, 12, 500, 500]         (recursive)
│    └─Correctors: 2-9                                  [2, 12, 500, 500]         --
│    └─UNetBackbone: 2-10                               [2, 280, 500, 500]        (recursive)
│    └─Conv2d: 2-11                                     [2, 12, 500, 500]         (recursive)
│    └─Correctors: 2-12                                 [2, 12, 500, 500]         --
=========================================================================================================
Total params: 82,175,804
Trainable params: 82,175,804
Non-trainable params: 0
Total mult-adds (Units.TERABYTES): 18.89
=========================================================================================================
Input size (MB): 0.00
Forward/backward pass size (MB): 89012.00
Params size (MB): 328.70
…
