…
2026-01-30 13:50:12,286 - INFO - logging - TorchTrainDataset.__init__ took 0.0020 seconds
2026-01-30 13:50:12,286 - INFO - train - Instantiating torch loaders
2026-01-30 13:51:11,184 - INFO - logging - Number of parameters: 82191604
2026-01-30 13:51:12,342 - INFO - logging - =========================================================================================================
Layer (type:depth-idx)                                  Output Shape              Param #
=========================================================================================================
DistributedDataParallel                                 [1, 20, 540, 540]         --
├─Samudra: 1-1                                          [1, 20, 540, 540]         --
│    └─UNetBackbone: 2-1                                [1, 280, 540, 540]        82,141,184
│    └─Conv2d: 2-2                                      [1, 20, 540, 540]         50,420
│    └─Correctors: 2-3                                  [1, 20, 540, 540]         --
│    └─UNetBackbone: 2-4                                [1, 280, 540, 540]        (recursive)
│    └─Conv2d: 2-5                                      [1, 20, 540, 540]         (recursive)
│    └─Correctors: 2-6                                  [1, 20, 540, 540]         --
│    └─UNetBackbone: 2-7                                [1, 280, 540, 540]        (recursive)
│    └─Conv2d: 2-8                                      [1, 20, 540, 540]         (recursive)
│    └─Correctors: 2-9                                  [1, 20, 540, 540]         --
│    └─UNetBackbone: 2-10                               [1, 280, 540, 540]        (recursive)
│    └─Conv2d: 2-11                                     [1, 20, 540, 540]         (recursive)
│    └─Correctors: 2-12                                 [1, 20, 540, 540]         --
=========================================================================================================
Total params: 82,191,604
Trainable params: 82,191,604
Non-trainable params: 0
Total mult-adds (Units.TERABYTES): 11.06
=========================================================================================================
Input size (MB): 0.00
Forward/backward pass size (MB): 16341.62
Params size (MB): 328.77
…
