…
2026-02-02 21:55:16,552 - INFO - logging - TorchTrainDataset.__init__ took 0.0029 seconds
2026-02-02 21:55:16,552 - INFO - train - Instantiating torch loaders
2026-02-02 22:05:54,733 - INFO - logging - Number of parameters: 85076172
2026-02-02 22:05:56,466 - INFO - logging - =========================================================================================================
Layer (type:depth-idx)                                  Output Shape              Param #
=========================================================================================================
DistributedDataParallel                                 [1, 204, 69, 47]          --
├─Samudra: 1-1                                          [1, 204, 69, 47]          --
│    └─UNetBackbone: 2-1                                [1, 280, 69, 47]          84,561,888
│    └─Conv2d: 2-2                                      [1, 204, 69, 47]          514,284
│    └─Correctors: 2-3                                  [1, 204, 69, 47]          --
│    └─UNetBackbone: 2-4                                [1, 280, 69, 47]          (recursive)
│    └─Conv2d: 2-5                                      [1, 204, 69, 47]          (recursive)
│    └─Correctors: 2-6                                  [1, 204, 69, 47]          --
│    └─UNetBackbone: 2-7                                [1, 280, 69, 47]          (recursive)
│    └─Conv2d: 2-8                                      [1, 204, 69, 47]          (recursive)
│    └─Correctors: 2-9                                  [1, 204, 69, 47]          --
│    └─UNetBackbone: 2-10                               [1, 280, 69, 47]          (recursive)
│    └─Conv2d: 2-11                                     [1, 204, 69, 47]          (recursive)
│    └─Correctors: 2-12                                 [1, 204, 69, 47]          --
=========================================================================================================
Total params: 85,076,172
Trainable params: 85,076,172
Non-trainable params: 0
Total mult-adds (Units.GIGABYTES): 156.29
=========================================================================================================
Input size (MB): 0.00
Forward/backward pass size (MB): 234.79
Params size (MB): 340.30
…
