…
2026-02-12 18:04:28,846 - INFO - logging - TorchTrainDataset.__init__ took 0.0047 seconds
2026-02-12 18:04:28,846 - INFO - train - Instantiating torch loaders
2026-02-12 18:15:27,606 - INFO - logging - Number of parameters: 92917978
2026-02-12 18:15:28,709 - INFO - logging - =========================================================================================================
Layer (type:depth-idx)                                  Output Shape              Param #
=========================================================================================================
DistributedDataParallel                                 [1, 410, 100, 100]        --
├─Samudra: 1-1                                          [1, 410, 100, 100]        --
│    └─UNetBackbone: 2-1                                [1, 280, 100, 100]        91,884,368
│    └─Conv2d: 2-2                                      [1, 410, 100, 100]        1,033,610
│    └─Correctors: 2-3                                  [1, 410, 100, 100]        --
│    └─UNetBackbone: 2-4                                [1, 280, 100, 100]        (recursive)
│    └─Conv2d: 2-5                                      [1, 410, 100, 100]        (recursive)
│    └─Correctors: 2-6                                  [1, 410, 100, 100]        --
│    └─UNetBackbone: 2-7                                [1, 280, 100, 100]        (recursive)
│    └─Conv2d: 2-8                                      [1, 410, 100, 100]        (recursive)
│    └─Correctors: 2-9                                  [1, 410, 100, 100]        --
│    └─UNetBackbone: 2-10                               [1, 280, 100, 100]        (recursive)
│    └─Conv2d: 2-11                                     [1, 410, 100, 100]        (recursive)
│    └─Correctors: 2-12                                 [1, 410, 100, 100]        --
=========================================================================================================
Total params: 92,917,978
Trainable params: 92,917,978
Non-trainable params: 0
Total mult-adds (Units.GIGABYTES): 807.26
=========================================================================================================
Input size (MB): 0.00
Forward/backward pass size (MB): 1744.08
Params size (MB): 371.67
…
