…
2026-01-31 13:55:12,305 - INFO - logging - TorchTrainDataset.__init__ took 0.0022 seconds
2026-01-31 13:55:12,305 - INFO - train - Instantiating torch loaders
2026-01-31 13:55:57,316 - INFO - logging - Number of parameters: 82328024
2026-01-31 13:55:58,326 - INFO - logging - =========================================================================================================
Layer (type:depth-idx)                                  Output Shape              Param #
=========================================================================================================
DistributedDataParallel                                 [1, 40, 540, 540]         --
├─Samudra: 1-1                                          [1, 40, 540, 540]         --
│    └─UNetBackbone: 2-1                                [1, 280, 540, 540]        82,227,184
│    └─Conv2d: 2-2                                      [1, 40, 540, 540]         100,840
│    └─Correctors: 2-3                                  [1, 40, 540, 540]         --
│    └─UNetBackbone: 2-4                                [1, 280, 540, 540]        (recursive)
│    └─Conv2d: 2-5                                      [1, 40, 540, 540]         (recursive)
│    └─Correctors: 2-6                                  [1, 40, 540, 540]         --
│    └─UNetBackbone: 2-7                                [1, 280, 540, 540]        (recursive)
│    └─Conv2d: 2-8                                      [1, 40, 540, 540]         (recursive)
│    └─Correctors: 2-9                                  [1, 40, 540, 540]         --
│    └─UNetBackbone: 2-10                               [1, 280, 540, 540]        (recursive)
│    └─Conv2d: 2-11                                     [1, 40, 540, 540]         (recursive)
│    └─Correctors: 2-12                                 [1, 40, 540, 540]         --
=========================================================================================================
Total params: 82,328,024
Trainable params: 82,328,024
Non-trainable params: 0
Total mult-adds (Units.TERABYTES): 11.22
=========================================================================================================
Input size (MB): 0.00
Forward/backward pass size (MB): 16901.49
Params size (MB): 329.31
…
