…
2026-02-03 22:51:45,217 - INFO - logging - TorchTrainDataset.__init__ took 0.0014 seconds
2026-02-03 22:51:45,217 - INFO - train - Instantiating torch loaders
2026-02-03 22:57:44,388 - INFO - logging - Number of parameters: 82105762
2026-02-03 22:57:45,044 - INFO - logging - =========================================================================================================
Layer (type:depth-idx)                                  Output Shape              Param #
=========================================================================================================
DistributedDataParallel                                 [1, 2, 100, 100]          --
├─Samudra: 1-1                                          [1, 2, 100, 100]          --
│    └─UNetBackbone: 2-1                                [1, 280, 100, 100]        82,100,720
│    └─Conv2d: 2-2                                      [1, 2, 100, 100]          5,042
│    └─Correctors: 2-3                                  [1, 2, 100, 100]          --
│    └─UNetBackbone: 2-4                                [1, 280, 100, 100]        (recursive)
│    └─Conv2d: 2-5                                      [1, 2, 100, 100]          (recursive)
│    └─Correctors: 2-6                                  [1, 2, 100, 100]          --
│    └─UNetBackbone: 2-7                                [1, 280, 100, 100]        (recursive)
│    └─Conv2d: 2-8                                      [1, 2, 100, 100]          (recursive)
│    └─Correctors: 2-9                                  [1, 2, 100, 100]          --
│    └─UNetBackbone: 2-10                               [1, 280, 100, 100]        (recursive)
│    └─Conv2d: 2-11                                     [1, 2, 100, 100]          (recursive)
│    └─Correctors: 2-12                                 [1, 2, 100, 100]          --
=========================================================================================================
Total params: 82,105,762
Trainable params: 82,105,762
Non-trainable params: 0
Total mult-adds (Units.GIGABYTES): 374.77
=========================================================================================================
Input size (MB): 0.00
Forward/backward pass size (MB): 542.12
Params size (MB): 328.42
…
