…
2026-02-25 09:33:55,984 - INFO - logging - TorchTrainDataset.__init__ took 0.0019 seconds
2026-02-25 09:33:55,984 - INFO - train - Instantiating torch loaders
2026-02-25 09:43:50,305 - INFO - logging - Number of parameters: 82643956
2026-02-25 09:43:52,143 - INFO - logging - =========================================================================================================
Layer (type:depth-idx)                                  Output Shape              Param #
=========================================================================================================
DistributedDataParallel                                 [1, 68, 100, 100]         --
├─Samudra: 1-1                                          [1, 68, 100, 100]         --
│    └─UNetBackbone: 2-1                                [1, 280, 100, 100]        82,472,528
│    └─Conv2d: 2-2                                      [1, 68, 100, 100]         171,428
│    └─Correctors: 2-3                                  [1, 68, 100, 100]         --
│    └─UNetBackbone: 2-4                                [1, 280, 100, 100]        (recursive)
│    └─Conv2d: 2-5                                      [1, 68, 100, 100]         (recursive)
│    └─Correctors: 2-6                                  [1, 68, 100, 100]         --
│    └─UNetBackbone: 2-7                                [1, 280, 100, 100]        (recursive)
│    └─Conv2d: 2-8                                      [1, 68, 100, 100]         (recursive)
│    └─Correctors: 2-9                                  [1, 68, 100, 100]         --
│    └─UNetBackbone: 2-10                               [1, 280, 100, 100]        (recursive)
│    └─Conv2d: 2-11                                     [1, 68, 100, 100]         (recursive)
│    └─Correctors: 2-12                                 [1, 68, 100, 100]         --
=========================================================================================================
Total params: 82,643,956
Trainable params: 82,643,956
Non-trainable params: 0
Total mult-adds (Units.GIGABYTES): 396.30
=========================================================================================================
Input size (MB): 0.00
Forward/backward pass size (MB): 1196.88
Params size (MB): 330.58
…
