…
2026-02-25 11:09:45,877 - INFO - logging - TorchTrainDataset.__init__ took 0.0019 seconds
2026-02-25 11:09:45,877 - INFO - train - Instantiating torch loaders
2026-02-25 11:10:52,614 - INFO - logging - Number of parameters: 82591588
2026-02-25 11:10:54,293 - INFO - logging - =========================================================================================================
Layer (type:depth-idx)                                  Output Shape              Param #
=========================================================================================================
DistributedDataParallel                                 [1, 68, 100, 100]         --
├─Samudra: 1-1                                          [1, 68, 100, 100]         --
│    └─UNetBackbone: 2-1                                [1, 280, 100, 100]        82,420,160
│    └─Conv2d: 2-2                                      [1, 68, 100, 100]         171,428
│    └─Correctors: 2-3                                  [1, 68, 100, 100]         --
│    └─UNetBackbone: 2-4                                [1, 280, 100, 100]        (recursive)
│    └─Conv2d: 2-5                                      [1, 68, 100, 100]         (recursive)
│    └─Correctors: 2-6                                  [1, 68, 100, 100]         --
│    └─UNetBackbone: 2-7                                [1, 280, 100, 100]        (recursive)
│    └─Conv2d: 2-8                                      [1, 68, 100, 100]         (recursive)
│    └─Correctors: 2-9                                  [1, 68, 100, 100]         --
│    └─UNetBackbone: 2-10                               [1, 280, 100, 100]        (recursive)
│    └─Conv2d: 2-11                                     [1, 68, 100, 100]         (recursive)
│    └─Correctors: 2-12                                 [1, 68, 100, 100]         --
=========================================================================================================
Total params: 82,591,588
Trainable params: 82,591,588
Non-trainable params: 0
Total mult-adds (Units.GIGABYTES): 394.21
=========================================================================================================
Input size (MB): 0.00
Forward/backward pass size (MB): 605.48
Params size (MB): 330.37
…
