…
2026-02-24 14:40:52,891 - INFO - logging - TorchTrainDataset.__init__ took 0.0025 seconds
2026-02-24 14:40:52,891 - INFO - train - Instantiating torch loaders
2026-02-24 14:42:59,664 - INFO - logging - Number of parameters: 83718666
2026-02-24 14:43:01,313 - INFO - logging - =========================================================================================================
Layer (type:depth-idx)                                  Output Shape              Param #
=========================================================================================================
DistributedDataParallel                                 [1, 138, 100, 100]        --
├─Samudra: 1-1                                          [1, 138, 100, 100]        --
│    └─UNetBackbone: 2-1                                [1, 280, 100, 100]        83,370,768
│    └─Conv2d: 2-2                                      [1, 138, 100, 100]        347,898
│    └─Correctors: 2-3                                  [1, 138, 100, 100]        --
│    └─UNetBackbone: 2-4                                [1, 280, 100, 100]        (recursive)
│    └─Conv2d: 2-5                                      [1, 138, 100, 100]        (recursive)
│    └─Correctors: 2-6                                  [1, 138, 100, 100]        --
│    └─UNetBackbone: 2-7                                [1, 280, 100, 100]        (recursive)
│    └─Conv2d: 2-8                                      [1, 138, 100, 100]        (recursive)
│    └─Correctors: 2-9                                  [1, 138, 100, 100]        --
│    └─UNetBackbone: 2-10                               [1, 280, 100, 100]        (recursive)
│    └─Conv2d: 2-11                                     [1, 138, 100, 100]        (recursive)
│    └─Correctors: 2-12                                 [1, 138, 100, 100]        --
=========================================================================================================
Total params: 83,718,666
Trainable params: 83,718,666
Non-trainable params: 0
Total mult-adds (Units.GIGABYTES): 439.29
=========================================================================================================
Input size (MB): 0.00
Forward/backward pass size (MB): 1308.88
Params size (MB): 334.87
…
