…
2026-01-21 14:32:40,749 - INFO - logging - TorchTrainDataset.__init__ took 0.0013 seconds
2026-01-21 14:32:40,749 - INFO - train - Instantiating torch loaders
2026-01-21 14:34:53,300 - INFO - logging - Number of parameters: 82132354
2026-01-21 14:34:55,161 - INFO - logging - =========================================================================================================
Layer (type:depth-idx)                                  Output Shape              Param #
=========================================================================================================
DistributedDataParallel                                 [4, 2, 100, 100]          --
├─Samudra: 1-1                                          [4, 2, 100, 100]          --
│    └─UNetBackbone: 2-1                                [4, 280, 100, 100]        82,127,312
│    └─Conv2d: 2-2                                      [4, 2, 100, 100]          5,042
│    └─Correctors: 2-3                                  [4, 2, 100, 100]          --
│    └─UNetBackbone: 2-4                                [4, 280, 100, 100]        (recursive)
│    └─Conv2d: 2-5                                      [4, 2, 100, 100]          (recursive)
│    └─Correctors: 2-6                                  [4, 2, 100, 100]          --
│    └─UNetBackbone: 2-7                                [4, 280, 100, 100]        (recursive)
│    └─Conv2d: 2-8                                      [4, 2, 100, 100]          (recursive)
│    └─Correctors: 2-9                                  [4, 2, 100, 100]          --
│    └─UNetBackbone: 2-10                               [4, 280, 100, 100]        (recursive)
│    └─Conv2d: 2-11                                     [4, 2, 100, 100]          (recursive)
│    └─Correctors: 2-12                                 [4, 2, 100, 100]          --
=========================================================================================================
Total params: 82,132,354
Trainable params: 82,132,354
Non-trainable params: 0
Total mult-adds (Units.TERABYTES): 1.50
=========================================================================================================
Input size (MB): 0.00
Forward/backward pass size (MB): 6991.81
Params size (MB): 328.53
…
