…
2026-01-26 15:00:14,486 - INFO - logging - TorchTrainDataset.__init__ took 0.0016 seconds
2026-01-26 15:00:14,486 - INFO - train - Instantiating torch loaders
2026-01-26 15:07:01,329 - INFO - logging - Number of parameters: 82140180
2026-01-26 15:07:12,393 - INFO - logging - =========================================================================================================
Layer (type:depth-idx)                                  Output Shape              Param #
=========================================================================================================
DistributedDataParallel                                 [4, 4, 1000, 1000]        --
├─Samudra: 1-1                                          [4, 4, 1000, 1000]        --
│    └─UNetBackbone: 2-1                                [4, 280, 1000, 1000]      82,130,096
│    └─Conv2d: 2-2                                      [4, 4, 1000, 1000]        10,084
│    └─Correctors: 2-3                                  [4, 4, 1000, 1000]        --
│    └─UNetBackbone: 2-4                                [4, 280, 1000, 1000]      (recursive)
│    └─Conv2d: 2-5                                      [4, 4, 1000, 1000]        (recursive)
│    └─Correctors: 2-6                                  [4, 4, 1000, 1000]        --
│    └─UNetBackbone: 2-7                                [4, 280, 1000, 1000]      (recursive)
│    └─Conv2d: 2-8                                      [4, 4, 1000, 1000]        (recursive)
│    └─Correctors: 2-9                                  [4, 4, 1000, 1000]        --
│    └─UNetBackbone: 2-10                               [4, 280, 1000, 1000]      (recursive)
│    └─Conv2d: 2-11                                     [4, 4, 1000, 1000]        (recursive)
│    └─Correctors: 2-12                                 [4, 4, 1000, 1000]        --
=========================================================================================================
Total params: 82,140,180
Trainable params: 82,140,180
Non-trainable params: 0
Total mult-adds (Units.TERABYTES): 150.65
=========================================================================================================
Input size (MB): 0.00
Forward/backward pass size (MB): 703198.71
Params size (MB): 328.56
…
