…
2026-01-28 13:42:21,092 - INFO - logging - TorchTrainDataset.__init__ took 0.0013 seconds
2026-01-28 13:42:21,092 - INFO - train - Instantiating torch loaders
2026-01-28 13:58:12,022 - INFO - logging - Number of parameters: 82132354
2026-01-28 13:58:14,148 - INFO - logging - =========================================================================================================
Layer (type:depth-idx)                                  Output Shape              Param #
=========================================================================================================
DistributedDataParallel                                 [2, 2, 50, 50]            --
├─Samudra: 1-1                                          [2, 2, 50, 50]            --
│    └─UNetBackbone: 2-1                                [2, 280, 50, 50]          82,127,312
│    └─Conv2d: 2-2                                      [2, 2, 50, 50]            5,042
│    └─Correctors: 2-3                                  [2, 2, 50, 50]            --
│    └─UNetBackbone: 2-4                                [2, 280, 50, 50]          (recursive)
│    └─Conv2d: 2-5                                      [2, 2, 50, 50]            (recursive)
│    └─Correctors: 2-6                                  [2, 2, 50, 50]            --
│    └─UNetBackbone: 2-7                                [2, 280, 50, 50]          (recursive)
│    └─Conv2d: 2-8                                      [2, 2, 50, 50]            (recursive)
│    └─Correctors: 2-9                                  [2, 2, 50, 50]            --
│    └─UNetBackbone: 2-10                               [2, 280, 50, 50]          (recursive)
│    └─Conv2d: 2-11                                     [2, 2, 50, 50]            (recursive)
│    └─Correctors: 2-12                                 [2, 2, 50, 50]            --
=========================================================================================================
Total params: 82,132,354
Trainable params: 82,132,354
Non-trainable params: 0
Total mult-adds (Units.GIGABYTES): 185.30
=========================================================================================================
Input size (MB): 0.00
Forward/backward pass size (MB): 867.23
Params size (MB): 328.53
…
