…
2026-01-21 17:57:49,934 - INFO - logging - TorchTrainDataset.__init__ took 0.0022 seconds
2026-01-21 17:57:49,934 - INFO - train - Instantiating torch loaders
2026-01-21 18:00:06,490 - INFO - logging - Number of parameters: 82175804
2026-01-21 18:00:20,776 - INFO - logging - =========================================================================================================
Layer (type:depth-idx)                                  Output Shape              Param #
=========================================================================================================
DistributedDataParallel                                 [4, 12, 1000, 1000]       --
├─Samudra: 1-1                                          [4, 12, 1000, 1000]       --
│    └─UNetBackbone: 2-1                                [4, 280, 1000, 1000]      82,145,552
│    └─Conv2d: 2-2                                      [4, 12, 1000, 1000]       30,252
│    └─Correctors: 2-3                                  [4, 12, 1000, 1000]       --
│    └─UNetBackbone: 2-4                                [4, 280, 1000, 1000]      (recursive)
│    └─Conv2d: 2-5                                      [4, 12, 1000, 1000]       (recursive)
│    └─Correctors: 2-6                                  [4, 12, 1000, 1000]       --
│    └─UNetBackbone: 2-7                                [4, 280, 1000, 1000]      (recursive)
│    └─Conv2d: 2-8                                      [4, 12, 1000, 1000]       (recursive)
│    └─Correctors: 2-9                                  [4, 12, 1000, 1000]       --
│    └─UNetBackbone: 2-10                               [4, 280, 1000, 1000]      (recursive)
│    └─Conv2d: 2-11                                     [4, 12, 1000, 1000]       (recursive)
│    └─Correctors: 2-12                                 [4, 12, 1000, 1000]       --
=========================================================================================================
Total params: 82,175,804
Trainable params: 82,175,804
Non-trainable params: 0
Total mult-adds (Units.TERABYTES): 151.22
=========================================================================================================
Input size (MB): 0.00
Forward/backward pass size (MB): 712414.71
Params size (MB): 328.70
…
