…
2026-01-29 18:54:50,983 - INFO - logging - TorchTrainDataset.__init__ took 0.0016 seconds
2026-01-29 18:54:50,983 - INFO - train - Instantiating torch loaders
2026-01-29 18:55:40,602 - INFO - logging - Number of parameters: 82191604
2026-01-29 18:55:42,332 - INFO - logging - =========================================================================================================
Layer (type:depth-idx)                                  Output Shape              Param #
=========================================================================================================
DistributedDataParallel                                 [1, 20, 100, 100]         --
├─Samudra: 1-1                                          [1, 20, 100, 100]         --
│    └─UNetBackbone: 2-1                                [1, 280, 100, 100]        82,141,184
│    └─Conv2d: 2-2                                      [1, 20, 100, 100]         50,420
│    └─Correctors: 2-3                                  [1, 20, 100, 100]         --
│    └─UNetBackbone: 2-4                                [1, 280, 100, 100]        (recursive)
│    └─Conv2d: 2-5                                      [1, 20, 100, 100]         (recursive)
│    └─Correctors: 2-6                                  [1, 20, 100, 100]         --
│    └─UNetBackbone: 2-7                                [1, 280, 100, 100]        (recursive)
│    └─Conv2d: 2-8                                      [1, 20, 100, 100]         (recursive)
│    └─Correctors: 2-9                                  [1, 20, 100, 100]         --
│    └─UNetBackbone: 2-10                               [1, 280, 100, 100]        (recursive)
│    └─Conv2d: 2-11                                     [1, 20, 100, 100]         (recursive)
│    └─Correctors: 2-12                                 [1, 20, 100, 100]         --
=========================================================================================================
Total params: 82,191,604
Trainable params: 82,191,604
Non-trainable params: 0
Total mult-adds (Units.GIGABYTES): 378.21
=========================================================================================================
Input size (MB): 0.00
Forward/backward pass size (MB): 559.40
Params size (MB): 328.77
…
