…
2026-01-29 17:51:45,983 - INFO - logging - TorchTrainDataset.__init__ took 0.0016 seconds
2026-01-29 17:51:45,983 - INFO - train - Instantiating torch loaders
2026-01-29 17:52:39,619 - INFO - logging - Number of parameters: 82175804
2026-01-29 17:52:45,136 - INFO - logging - =========================================================================================================
Layer (type:depth-idx)                                  Output Shape              Param #
=========================================================================================================
DistributedDataParallel                                 [1, 12, 500, 500]         --
├─Samudra: 1-1                                          [1, 12, 500, 500]         --
│    └─UNetBackbone: 2-1                                [1, 280, 500, 500]        82,145,552
│    └─Conv2d: 2-2                                      [1, 12, 500, 500]         30,252
│    └─Correctors: 2-3                                  [1, 12, 500, 500]         --
│    └─UNetBackbone: 2-4                                [1, 280, 500, 500]        (recursive)
│    └─Conv2d: 2-5                                      [1, 12, 500, 500]         (recursive)
│    └─Correctors: 2-6                                  [1, 12, 500, 500]         --
│    └─UNetBackbone: 2-7                                [1, 280, 500, 500]        (recursive)
│    └─Conv2d: 2-8                                      [1, 12, 500, 500]         (recursive)
│    └─Correctors: 2-9                                  [1, 12, 500, 500]         --
│    └─UNetBackbone: 2-10                               [1, 280, 500, 500]        (recursive)
│    └─Conv2d: 2-11                                     [1, 12, 500, 500]         (recursive)
│    └─Correctors: 2-12                                 [1, 12, 500, 500]         --
=========================================================================================================
Total params: 82,175,804
Trainable params: 82,175,804
Non-trainable params: 0
Total mult-adds (Units.TERABYTES): 9.44
=========================================================================================================
Input size (MB): 0.00
Forward/backward pass size (MB): 22301.00
Params size (MB): 328.70
…
